Test/hello.pt (torch, 5087 bytes, 4 tensors)

affine1.weight f4 [128, 4]
00000000: 8fc6 2abf f2cc 08bf 1376 3fbf d1af c2be
00000010: b4e2 20be 333a 263e b57d 883e a71b 523e
00000020: 1297 1f3e 9247 4dbe 008d 873e a413 64be
00000030: c64c e9be a5a1 ec3e 6231 d7bd 4531 e83e
00000040: f92c dabd 1a48 0d3f 5253 32bf 57e6 35bf
00000050: 3307 94be ee06 9c3e f83c a0bf 1edd 20be
00000060: f535 d1be 3579 cc3e 4855 e53e 1bb1 f13e
00000070: 015e e7bc 8147 343e c8e0 2f3e 5e19 a13e
00000080: 9dbb b63e 0258 84be d686 3f3f 7445 923e
00000090: 833d 7c3e 734e 82be 11b9 c1be d750 a8bf
000000a0: 78eb 35be 660a b43e ba21 80bf 89da 45bf
000000b0: 1598 83be af8d dbbd 37cf c13d f621 3cbe
000000c0: 9e30 673e 91f3 8cbe 3423 e0bf 1264 4cbf
000000d0: 8ef5 573d 699f 923e befb 323f 3562 8a3f
000000e0: 9720 8dbd 73a6 9a3e dff4 a8be 9a9e b03e
000000f0: cce5 46be 2143 50be e7a8 f83e 4f0b d13e
00000100: ce66 cdbb 47a3 91be cfb1 0e3e 520b 9abe
00000110: 6f9b f6bd 170f 44be 8cfd 153f eff7 9bbe
00000120: 33c2 883e 80fd 3cbe 593c 0b3f ce99 493e
00000130: 5370 41be 8f83 523e 2fc8 073e 2118 16be
00000140: 2e7e 233e ce3b 3dbd 4f93 a8be 3fbf dc3d
00000150: e17d 39bf 5ddc d63e 930f 5a3f e549 2e3f
00000160: 372e 57be cc6a 7e3e 2be5 6f3f 42ce bd3e
00000170: 30ba c03e cf30 b5bd 0f9b c1bf 1827 3fbf
00000180: 9510 543e fbe0 55be 6e32 97bf 1c84 2bbf
00000190: 07bb dbbe 3667 6ebd c005 ae3f 5197 83bd
000001a0: bb50 b23d ec48 82be feff 353f 70f7 523f
000001b0: cff8 30be 1c2e e3bd 708b d0bf c746 61bf
000001c0: 69a9 0d3e d7b1 eebd 7e67 c0be 8f28 02be
000001d0: 9658 1d3e 1c4e a6be 7d95 a4be 0294 60be
000001e0: 1d1a 58be 5fa6 4e3d e998 3abd 3edd 61bf
000001f0: b7cc f43c df39 b8bd f9b8 8a3e f7fb 57bb
00000200: 0047 e2be 9423 c2bd a308 4abf 0058 debc
00000210: 67dd 9abe 049e 68be 11e8 3b3f 32fb 8d3f
00000220: 3484 b63e 9b27 803e e5b3 753f a748 033f
00000230: 63f8 47bd d9ad a0ba 1387 49be 5936 a0bd
00000240: a291 98be 3d84 57be 8033 0ebf acd0 05bf
00000250: 2514 f93e b0cb 613f fb48 b03f 3614 4c3f
00000260: 1db4 9cbe d5bc 0abf c846 b2bf 775e eabe
00000270: 4307 41be 4d57 913e e57e 7b3e 2ba2 98bb
00000280: 3e92 ed3c 1ca0 9ebe ae40 3b3e ed0a d3be
00000290: 6a30 f33d 2ba9 97be a18f 39bf 1234 a23d
000002a0: 7d0e 863e bb5a 0dbf d2f4 84bf 8732 e13c
000002b0: e7e8 8abe bf4a a93e a732 acbe 1f1e 4cbe
000002c0: d1c3 0bbe 38f7 13be 7fb7 b83d ea90 83be
000002d0: 1be6 75bd 9759 b53c e209 e33e 6fab 623e
000002e0: 8283 ba3e e5d9 92be daf5 94bf 4aac e9be
000002f0: 9fd5 0dbd d621 3fbf a2eb 02bf c7aa 7c3d
00000300: 79ab 13be 5ee6 bf3d cff0 53bd 4611 8b3e
00000310: fde4 b43e 908f 85be 8041 9b3e c6d5 edbd
00000320: 4e88 6bbd 8cdb 133e 8c27 68bf a996 20bf
00000330: 1e6d 8c3e 6941 cf3d e43b f2be 5437 ec3e
00000340: 79a7 ab3e dd59 823e 8789 333f d3ab a83d
00000350: 61aa 3b3d 58fe 033e 3528 b6bd b18a 5fbe
00000360: e4f6 17bd 4bdb efbe ee41 93bf 97f3 49bf
00000370: f761 b7be 10a0 4d3e 9519 1abf f4ed 16bf
00000380: edd6 303e 0902 3ebe c526 18bf 35d1 02bf
00000390: ad08 9dbe 1796 333e d763 243f ab23 c93e
000003a0: e59b 233c baef 3fbf 15d3 ebbf 1a30 9abf
000003b0: f528 723d da31 b6be f9cb 87bf 7543 62bf
000003c0: e6c7 e23e ce0b 19be 0c6d e13f aa60 ad3f
000003d0: defe 0f3d b676 503e b67f 1ebe 0580 a63e
000003e0: c85e d03b 3e9f 3c3e 4833 d23f 837e 723f
000003f0: 628c db3e 4324 24bd 8209 afbf a560 20bf
-0.66709226 -0.5343772 -0.7478954 -0.38024762 -0.1571148 0.16233139 0.26658407 0.20518361
0.15584973 -0.20046833 0.26474762 -0.22273117 -0.45566386 0.46217075 -0.10507466 0.4535009
-0.10653109 0.55188143 -0.69658387 -0.71054596 -0.28911743 0.30474037 -1.2518606 -0.1570935
-0.40861478 0.39936224 0.44791627 0.47205433 -0.028243067 0.17605402 0.17175591 0.31464666
0.35690013 -0.25848395 0.7481512 0.28568614 0.2463284 -0.25450477 -0.37836507 -1.314967
-0.17765605 0.35164183 -1.0010293 -0.77286583 -0.25701967 -0.107203834 0.09463351 -0.1837233
0.2257714 -0.27529576 -1.7510743 -0.79840195 0.052724414 0.28637245 0.6991538 1.081122
-0.06890982 0.30205116 -0.32999322 0.34496003 -0.19423598 -0.20338108 0.48566362 0.4082894
-0.006268359 -0.28444883 0.13935016 -0.30086762 -0.12041365 -0.19146381 0.58590007 -0.30462596
0.26710662 -0.18456078 0.5438896 0.19687578 -0.18890505 0.20557998 0.13259958 -0.14657642
0.15966102 -0.046199612 -0.32924888 0.10778665 -0.724577 0.41965 0.85180014 0.68081504
-0.21013723 0.24845427 0.9370906 0.37071425 0.3764205 -0.088472 -1.5125445 -0.7466903
0.2070945 -0.20886604 -1.1812265 -0.6699846 -0.42916128 -0.0582039 1.3595505 -0.06425346
0.08706804 -0.2544626 0.7109374 0.8240881 -0.17282413 -0.11092779 -1.6292553 -0.8799862
0.13834156 -0.11655014 -0.37578958 -0.12710784 0.15365824 -0.32481468 -0.321453 -0.2193146
-0.21103711 0.050451633 -0.045555983 -0.88228214 0.029882772 -0.08995413 0.27094248 -0.003295658
-0.44194794 -0.09479442 -0.7891943 -0.027141571 -0.30247042 -0.22716528 0.7340098 1.1092284
0.35647738 0.25030217 0.9597762 0.51282734 -0.048820864 -0.0012258842 -0.19680433 -0.07822866
-0.2979861 -0.21046539 -0.5554733 -0.52271533 0.48648182 0.8820143 1.3772272 0.7971834
-0.30606166 -0.54194385 -1.3927851 -0.45775196 -0.18850426 0.28386918 0.24560125 -0.004658004
0.029000398 -0.3098153 0.18286392 -0.41219273 0.118744686 -0.29621252 -0.72484785 0.07920088
0.2618293 -0.5521657 -1.0387213 0.027489914 -0.27130815 0.3306484 -0.33632395 -0.19933365
-0.13648917 -0.14449775 0.09019374 -0.25696498 -0.0600339 0.022137446 0.44343477 0.22135709
0.36428457 -0.28681865 -1.1637528 -0.4563926 -0.034627553 -0.74661005 -0.511408 0.061686303
-0.1442088 0.09370111 -0.051743325 0.27161616 0.35330954 -0.26086092 0.3032341 -0.1161304
-0.057503037 0.14439219 -0.90685344 -0.6272989 0.27427 0.10119898 -0.47311318 0.46135962
0.3352621 0.25459185 0.70131725 0.08235898 0.045816783 0.12889993 -0.08894388 -0.2183025
-0.037100688 -0.46846995 -1.1504495 -0.78887314 -0.3581693 0.2008059 -0.60195285 -0.5895684
0.17269488 -0.18555464 -0.5943416 -0.51100475 -0.30670682 0.17537723 0.64214844 0.39285025
0.009985899 -0.7497517 -1.8423792 -1.204593 0.05912109 -0.3558491 -1.0609123 -0.8838418
0.44293135 -0.1494591 1.7611403 1.3545125 0.03515517 0.20357785 -0.15478405 0.32519546
0.006358955 0.18420121 1.64219 0.9472429 0.4288054 -0.040073644 -1.3674777 -0.6264747

affine1.bias f4 [128]
00000000: 13f4 2a3d 5717 0bbf 0af7 dfbe 32b4 a1be
00000010: 80a3 1f3f 0f1f 90bd b481 f6bd 7a53 21be
00000020: bf78 86be 4705 703e ea7c 5fbd db2a 0ebf
00000030: 4d9c 983e 2459 7f3e f7bc 3fbf 34a9 113f
00000040: ba39 0abf 678a 1abf 30fd a8be 0e79 06bf
00000050: b008 18bf 24e9 083f 17f6 fb3d c9c8 0d3f
00000060: 349c 9b3e 17e6 cd3d 8ac0 febd f21b 923e
00000070: a367 dfbe 93c7 50be 012f 033e 083f 8ebe
00000080: ebe6 90be 015f e33e 8034 123e 7aa9 21bf
00000090: 7a16 ddbe 9a74 083f c5b9 963e bf07 e0be
000000a0: 9c29 12bf fb84 e83d 09ec 893e 78b6 a5bd
000000b0: b557 86bc c1e3 3fbe 8ff7 4b3c b7c4 fdbd
000000c0: e7cd 9abe b2de 7a3d 948a 7a3f 4a63 c1be
000000d0: 8aa4 273e 387a 04bf 393f 033e 81b9 0abf
000000e0: ba66 97be 8386 4c3d 8ebd ac3e 1252 523e
000000f0: dab8 113f c463 1ebf 003b bd3e da4f bfbd
00000100: 4c95 203b 7107 24be 9705 683e d17d b1be
00000110: 35a4 f43e a451 aebe 4dd0 a23c 9250 473f
00000120: 115c 1abf 56d3 a8be 9943 29bf f182 3d3e
00000130: e9f6 19be cc97 10be 84fc 91be 1528 403e
00000140: 4006 7d3e f283 98bb 371a 0f3d c95d ad3d
00000150: 2ffe 223f d793 b43e 9aa5 2f3e a771 75be
00000160: cc12 b43d 36c4 b7be f460 503d 0340 923e
00000170: 4e57 fabd 1331 08bf 712d 9a3e 7b29 10be
00000180: 89e4 13bf 1494 c83d 779e bcbd 6797 e1bd
00000190: 4fec 71bd 4136 b7be e1ef bfbd a731 2c3f
000001a0: 8141 473e 1d9f cbbe 530a 01be fd41 5e3e
000001b0: 8822 f9bd 59c1 07be 6f98 fcbe fd27 513d
000001c0: 7996 293f 2748 86be 648e b93e 1b05 743e
000001d0: bded 1a3f d81d 82be 137d 833c be84 953e
000001e0: a6e2 22bf e71d bfbe 0b5a 1b3e 846f 7ebe
000001f0: 8f41 b2bd 8e61 823e 3488 b4be 08ff 2bbd
0.041736674 -0.5433249 -0.43743163 -0.3158279 0.62358856 -0.07037174 -0.12036458 -0.157545
-0.26263997 0.23439513 -0.054562487 -0.5553414 0.29806748 0.24936348 -0.7489771 0.5689881
-0.53994334 -0.60367435 -0.33005667 -0.52528465 -0.59388256 0.53480744 0.12302797 0.553845
0.3039261 0.10053652 -0.12439068 0.28536946 -0.43633756 -0.20388632 0.128109 -0.27782464
-0.28301176 0.4440842 0.1427784 -0.63149226 -0.4318121 0.5330292 0.29438606 -0.4375591
-0.5709474 0.11353489 0.26937893 -0.08091444 -0.016399244 -0.18739225 0.012449159 -0.12391036
-0.30235216 0.061247535 0.97867703 -0.37771064 0.1637136 -0.5174899 0.12817086 -0.54189306
-0.29570562 0.049932968 0.3373837 0.2053912 0.56922686 -0.6187098 0.36959076 -0.09341402
0.002450305 -0.16018464 0.22658382 -0.34666303 0.4778153 -0.34046662 0.019874716 0.77857316
-0.6029673 -0.32973737 -0.6611877 0.18506981 -0.15035595 -0.14120406 -0.28512967 0.1876529
0.24709415 -0.004654401 0.03493711 0.08465154 0.63669103 0.35269043 0.17153016 -0.23969136
0.08792648 -0.35891885 0.05087371 0.28564462 -0.12223683 -0.5319988 0.30112794 -0.14078324
-0.5777059 0.09793869 -0.09209912 -0.11015206 -0.059063252 -0.3578358 -0.09371925 0.67263263
0.19458582 -0.3976983 -0.12601595 0.2170486 -0.121647894 -0.1325735 -0.49335048 0.051063526
0.6624523 -0.26226923 0.36241448 0.23830073 0.6051901 -0.25413394 0.016050851 0.29202837
-0.6362709 -0.373275 0.15171067 -0.24847227 -0.087039106 0.25465053 -0.35260165 -0.041991264

affine2.weight f4 [2, 128]
00000000: fce6 a33e d0c0 bc3d c065 d73c c274 8c3d
00000010: 5424 943e 9c5c d73d 6dc0 d83c f205 a1bd
00000020: fbb0 3e3d 17fe b13e c715 253e 93b5 333d
00000030: 6e44 b93e eabd d9be 777b 52bd 58b2 9ebe
00000040: 1d53 f6bd 97fa 73bd 4276 733d 25fd 6c3b
00000050: 2711 5fbd 4d33 f4be e2d6 25be 9958 ce3e
00000060: 3121 483e 1d64 68be 84c1 51be 35d7 593e
00000070: 64bd 77bd 9c34 393d 3e62 053e f674 1b3d
00000080: c925 cc3d ef60 dfbe dea5 01be 6b06 81bc
00000090: 7804 c03e cd36 63bf 1969 0b3f 0382 b63c
000000a0: 8144 ab39 d1f8 b7bd 9f8a fc3d 70c7 7d3d
000000b0: 27a2 02bc 7b6e 21bd 7e59 483e 5917 aa3d
000000c0: ce1c ed3c 288f 83bd 9726 e53e 0e7c bd3d
000000d0: 8fc1 83bd 90f7 dcbc b314 f73e edd6 9d3d
000000e0: 5d67 033d b79f 883d c39d 223f 3b36 df3d
000000f0: c350 0ebf 0145 b13c a23e 02bf ed92 963e
00000100: cc1d 22be 286f 7cbd a100 033f f497 61be
00000110: caa5 88be 1feb e43d c0f2 e0bd 80cd c7be
00000120: 2f3e f53d 50d8 0a3d c801 d7bc f525 413c
00000130: c38f a8bd b96c 0f3e 5079 483d d3e2 8d3d
00000140: 97e7 10be c3da a0be 7ac6 9a3e 8a68 afbd
00000150: 97f1 76bf 96b1 66be 7b9d 873e 2e68 db3e
00000160: 03db 933e 3a69 203f 6cd9 5d3e 7397 d2be
00000170: 9f1c 90bd bb33 fdbc b1e7 27be 323d 1f3e
00000180: 3613 6f3b a21b 56bd fa0e 8abe de3a a8bd
00000190: 783e 24be e70a 223e 26d5 46be 802b d13e
000001a0: 9338 d13d 513b 093d 8250 a9ba 7fcc d73e
000001b0: f14a 823d 4222 713d b486 143c 9ba1 bb3d
000001c0: ac96 61bf b34c 47bd 751b 18bf d0b1 8cbe
000001d0: 5012 9ebe 73e9 803c db2d f33e 1813 6dbd
000001e0: d8d1 fe3d cbdf 0c3d e40c 3cbe 2fd0 15bd
000001f0: 653b d43d f65c 4abe 6ea9 04bd ef1c 963d
00000200: a453 48be 5a69 c7bd b38f b63b c429 45be
00000210: 0fc9 bdbe 0746 37be c047 033d 135a 29bc
00000220: 6ddc 013b c633 9fbe 7ec5 14be d408 b73c
00000230: dc71 ecbe d696 be3e f67c c03d ba3f 9a3e
00000240: c087 ea3d a6b8 fcbb 068e 1cbd f232 e83c
00000250: 9f70 4a3d 4be1 123f 4a7d 543c 7fc9 06bf
00000260: ed6a 7bbe 8caf 723e 0630 2d3e 1f46 a2be
00000270: f941 afbc 4d73 ebbd d648 f9bd 7a7f 02bd
00000280: 727c 9dbc 8c95 da3e 9603 103e 2e46 b3bc
00000290: 52a6 b8be f42f 513f c18a 25bf dacb 813c
000002a0: de3e ee3d 02f7 db3d 2016 ffbd 39e8 19be
000002b0: ce06 783c ca26 c3bb af5c 08be 0690 84bd
000002c0: 37e5 aebd 717a 17bd 282e ecbe 1bad 8dbd
000002d0: ab87 123e 4216 ae3d 5b21 d1be 42a3 9b3a
000002e0: 12c0 15be ac22 a4bc 8333 1fbf 2b08 50be
000002f0: 6770 303f 8b46 7dbd a034 023f 2720 12be
00000300: 5bd0 e83d 77f7 8d3d 3ae4 03bf 25e1 483e
00000310: 5e3f 553e afd7 1fbe 5c53 263e 2c8d ae3e
00000320: fb4d e1bd 73c3 05be 522f 893d 646b 4c3d
00000330: a1dd 283d f096 cfbd af7b b7bc 8553 2ebe
00000340: 4af1 5e3e 8708 c43e 8aa7 97be 712d 4f3e
00000350: 1445 7c3f 6c93 433e cebd 9ebe f67c d3be
00000360: c04e 9ebe 9a1e 15bf c7e8 11be a916 c13e
00000370: 9eaa 9e3d c88c 81bd 6c30 533e 07eb abbd
00000380: d86e d2bd 368b f53d b4de 5b3e ac87 87bc
00000390: c85c 6a3e b956 f4bd 1379 6c3e d45f e3be
000003a0: 5cc8 b8bd 195f 633a 127b 60bd dd15 00bf
000003b0: 8c48 12bd 9087 1e3d 872f 95bd 9177 a1bd
000003c0: 73d6 3c3f 5ccf 14bc 0e9f 0c3f ffb6 ce3e
000003d0: 1884 843e a178 e1bd 66cc c0be 765f 1f3e
000003e0: 58cf 653c 1646 9cbd a1df c63d 428c a53a
000003f0: a8b9 31be cb76 933e aee6 593d 9d64 e0bc
0.32012165 0.092164636 0.026293635 0.06858207 0.28933966 0.10515711 0.026458943 -0.07862462
0.0465555 0.34764168 0.16121589 0.043874335 0.3618502 -0.42527705 -0.051387277 -0.3099544
-0.12027571 -0.059565153 0.05943895 0.0036161628 -0.054459717 -0.4769539 -0.16195253 0.4030197
0.19543912 -0.2269444 -0.20483977 0.21273501 -0.06048335 0.045216188 0.13025758 0.03795334
0.099681444 -0.43628642 -0.1266093 -0.01575013 0.3750341 -0.88755494 0.5445724 0.022278791
0.000326667 -0.08983005 0.123311274 0.061957777 -0.00797323 -0.039412003 0.19565389 0.083052345
0.0289444 -0.06423789 0.44756004 0.09252177 -0.06433403 -0.026973516 0.4825798 0.077070095
0.032080997 0.06671088 0.63521975 0.108990155 -0.5559198 0.021639349 -0.5087682 0.2940897
-0.15831679 -0.061629444 0.51172835 -0.22030622 -0.26688987 0.11177658 -0.10983801 -0.39023972
0.11974751 0.033897698 -0.026245967 0.011788835 -0.08230545 0.14006318 0.048943818 0.06928029
-0.14150845 -0.31416902 0.3022955 -0.08564861 -0.96462387 -0.22528681 0.26487336 0.4285292
0.2887803 0.62660563 0.21664971 -0.41131172 -0.07036709 -0.030908456 -0.16396977 0.15550688
0.0036479956 -0.052272446 -0.2696455 -0.08214353 -0.16039455 0.15824471 -0.19417247 0.408535
0.10215869 0.033503834 -0.001291767 0.42148206 0.0636195 0.05887056 0.009065319 0.09161683
-0.8812053 -0.04865713 -0.59416896 -0.2747941 -0.30873346 0.015736317 0.47495922 -0.057879537
0.12442368 0.034393113 -0.18364292 -0.036575492 0.10362891 -0.19762024 -0.032388143 0.073297374
-0.19563156 -0.09736891 0.0055713295 -0.19254214 -0.37067458 -0.17897807 0.032050848 -0.010336417
0.0019815222 -0.31094187 -0.14528462 0.022343077 -0.46180618 0.37224454 0.093988344 0.30126745
0.114516735 -0.0077124415 -0.03822138 0.028344605 0.04942381 0.5737502 0.012969324 -0.5265121
-0.24552508 0.23699778 0.1691285 -0.31694123 -0.021393763 -0.11496601 -0.121720955 -0.031859852
-0.01922438 0.4269222 0.14063868 -0.02188405 -0.36064392 0.81713796 -0.64664847 0.015844274
0.11633085 0.107404724 -0.12455392 -0.15029992 0.015138341 -0.0059555518 -0.13316606 -0.06472783
-0.08539813 -0.036982004 -0.46128964 -0.06917783 0.14309566 0.08500339 -0.4084576 0.0011874216
-0.1462405 -0.020036064 -0.62187976 -0.20315616 0.6892151 -0.061834853 0.5086155 -0.14270078
0.11367866 0.06931966 -0.5152012 0.19617136 0.20824954 -0.1560962 0.16242737 0.3409208
-0.11001202 -0.13062839 0.06698479 0.049907103 0.041226987 -0.10136211 -0.022397844 -0.17024048
0.21771732 0.38287756 -0.2962001 0.20232178 0.98542905 0.19099206 -0.31004184 -0.41306275
-0.30919456 -0.5824982 -0.14248954 0.377126 0.077473864 -0.0632568 0.2062394 -0.08394437
-0.10275048 0.11989443 0.21471673 -0.016544186 0.22886956 -0.119306035 0.23093061 -0.4440905
-0.090225905 0.00086735334 -0.05480487 -0.5003336 -0.035713717 0.0387035 -0.07284456 -0.078841336
0.73764724 -0.009082641 0.549302 0.4037399 0.2588203 -0.11009336 -0.37655944 0.15563759
0.014026485 -0.07630555 0.097106226 0.0012630301 -0.17355978 0.2880157 0.05319851 -0.027391726

affine2.bias f4 [2]
00000000: 44e9 23bc b77d 1e3d
-0.010004345 0.03869411
