Envs/hello.pt (torch, 3607 bytes, 6 tensors)

affine1.weight f4 [24, 1]
000000 88 ef df 3e 9a 1d 52 bf e4 d6 8d 3e c4 60 2e 3f
       0.43737435 -0.8207642 0.2770301 0.681164
000010 4c 49 3b bf 80 10 41 bd d4 34 ef be 3c 91 be be
       -0.7315872 -0.047134876 -0.46719992 -0.3722018
000020 34 68 33 3f 68 bd aa 3e f0 c7 4a 3e 38 56 40 3e
       0.70080876 0.3334763 0.19802833 0.1878289
000030 c8 9c ab 3e 6c d5 d7 be 40 74 06 3f 74 a8 28 bf
       0.33518052 -0.42155015 0.52521133 -0.6588204
000040 c2 ac 10 3f 44 b4 4d bf c8 79 15 3e c0 84 69 bf
       0.5651361 -0.8035319 0.14597237 -0.91218185
000050 44 1a 5e bf c0 ed e1 be 00 76 54 3e e0 92 e7 3e
       -0.8675883 -0.441267 0.20748138 0.45229244

affine1.bias f4 [24]
000000 c0 a9 9e 3d c8 26 45 bf 84 b2 55 3f 22 70 06 bf
       0.07747221 -0.770123 0.8347552 -0.5251485
000010 fa 6b 3e bf ac 7a 45 bf 1c 8c fc be 08 d4 b0 3e
       -0.7438351 -0.7714031 -0.49325645 0.34536767
000020 18 3c 9e be 00 5d b6 3e 98 b8 e7 be b0 bf 8c 3d
       -0.30905223 0.35617828 -0.4525802 0.06872499
000030 c0 b6 85 bc 92 ec 27 3f 20 e9 19 3e 9c e2 35 3f
       -0.016322494 0.6559535 0.15030336 0.71048903
000040 48 03 b3 3e 70 1c 9e be b8 29 5f be a0 fc c7 3d
       0.3496344 -0.3088107 -0.21793258 0.09764981
000050 72 ea 06 3f c0 c5 9a 3c 02 32 1d bf c8 71 66 3e
       0.52701485 0.018893123 -0.6140443 0.22504342

affine2.weight f4 [12, 24]
000000 e0 3f 10 3d b4 5b df 3d 18 b6 40 3d a0 5b a5 bc
       0.035217166 0.10906163 0.047048658 -0.020185292
000010 00 f8 5f 3d d8 08 56 3d 8b a8 0d be 2a d6 3a 3e
       0.05467987 0.052254528 -0.13833825 0.1824576
000020 2e 17 a5 bd 30 e7 de bd 98 61 fb bc b2 b5 40 be
       -0.08061062 -0.10883939 -0.030686185 -0.18819311
000030 53 72 2d be f4 f0 d5 3d 06 f0 0d 3e 20 3d b6 bd
       -0.16938142 0.10446349 0.13861093 -0.088983774
000040 17 50 bc bd 0f 5f 24 be 6c 5e b1 bd bc d8 30 be
       -0.091949634 -0.16051887 -0.08660588 -0.17270178
000050 ac 98 19 bd 50 83 d8 3c bc 56 33 3e 20 15 d4 3d
       -0.037499115 0.026429802 0.17513555 0.10355592
000060 7b d4 34 be 14 dc 59 bd 32 52 46 3e f4 a8 2a bd
       -0.1765918 -0.0531884 0.19367293 -0.041665033
000070 e0 73 a8 3d 98 f0 2f be 49 89 4b be 10 3f 46 be
       0.082252264 -0.17181623 -0.19876589 -0.19359994
000080 0e 95 98 bd 84 43 b3 3d 94 32 2f 3e e8 dc 36 3e
       -0.07450305 0.08753112 0.17109138 0.17857707
000090 a0 f0 5b 3d 7e 1f 19 be 70 98 2d 3d 10 f8 47 bd
       0.053696275 -0.1495342 0.042381704 -0.048820555
0000a0 74 60 09 3d f5 a4 a4 bd 66 fe 12 3e 92 70 18 be
       0.03353925 -0.080392756 0.14354858 -0.14886692
0000b0 04 c6 b1 3d cc 10 3c 3e e0 f8 a6 bc d9 c6 3c be
       0.086803466 0.18365782 -0.020382345 -0.1843523
0000c0 d9 45 dc bd e6 db 21 3e 60 29 20 3d 60 86 d3 bd
       -0.1075551 0.15806541 0.03910196 -0.10328364
0000d0 cb 46 3b be bc 54 09 3d 14 5b e5 3d e0 c4 b3 bc
       -0.18288724 0.033528075 0.111990124 -0.021944463
0000e0 f0 17 2c 3d ef f9 48 be f2 7a 3f 3e 54 90 89 3d
       0.042015016 -0.19626592 0.18699244 0.067169815
0000f0 70 86 1d bd ae 7b 18 3e 21 26 43 be 34 1a 0b be
       -0.038458288 0.1489093 -0.19057514 -0.13584214
000100 80 6c 74 3c 34 3b 4e bd a0 a9 11 3e ac 15 1f 3d
       0.014918447 -0.05034943 0.14224863 0.038839027
000110 c0 40 7b 3b 31 48 08 be 4c b3 a0 3d 3e b2 1e be
       0.0038338155 -0.13308789 0.07846698 -0.15497681
000120 4a 75 d9 bd 42 fc 09 be ea 25 23 be 90 16 4f 3d
       -0.10618074 -0.13475135 -0.15932432 0.050558627
000130 b8 ee 96 bc 1a ba 9e bd e0 19 2d be 71 64 39 be
       -0.018424377 -0.0775034 -0.16904402 -0.18104722
000140 a0 d9 1b 3e 3c 22 d4 bd d8 92 7b 3d 34 63 de 3d
       0.15219736 -0.10358092 0.061419338 0.10858765
000150 52 29 14 3e c8 83 2b be 6d b7 06 be b0 a3 c5 3c
       0.14468887 -0.1674949 -0.13155909 0.024125904
000160 ac 4b 81 3d d7 0b 32 be c2 6f 3e 3e ba c7 40 be
       0.063132614 -0.17387329 0.1859732 -0.1882619
000170 30 a9 db bc 00 08 63 3a 24 b6 1f 3e 38 2d 48 3d
       -0.026814073 0.0008660555 0.15596825 0.04887125
000180 f0 26 c2 3d cc 85 56 bd f1 bf 46 be 7d 69 d9 bd
       0.09480083 -0.052373692 -0.19409157 -0.106158234
000190 b4 dd 22 bd 99 08 25 be dc bf 04 3e 24 54 29 3e
       -0.039762214 -0.16116561 0.12963814 0.16536003
0001a0 9e 13 1e 3e 98 b5 50 3e a8 a0 14 3e b2 1e fb bd
       0.15437171 0.20381773 0.1451441 -0.12261714
0001b0 d2 59 0f 3e 59 14 02 be 30 4c 4b bc b1 2e bc bd
       0.13999107 -0.12703075 -0.012408301 -0.09188593
0001c0 c8 b3 7f bd f8 b0 0d bd 74 d1 31 be e2 0f 33 3e
       -0.062427312 -0.0345926 -0.17365056 0.17486528
0001d0 cd 35 3d be a8 89 8c 3c dc 77 4d be 4a 8d 0d be
       -0.18477555 0.017155483 -0.20065254 -0.13823429
0001e0 96 e1 15 3e 1e 1d 2b 3e f2 27 c4 bd 22 3e 0c be
       0.14636835 0.16710326 -0.095779315 -0.13695577
0001f0 82 a5 08 be 12 f3 f8 bd fe 9e 23 be 80 f1 8d 3a
       -0.13344386 -0.12155737 -0.1597862 0.0010829419
000200 b0 f2 b8 3c 28 e4 2f bd 53 74 e5 bd aa b8 07 3e
       0.02257666 -0.042942196 -0.11203828 0.13254037
000210 d8 6e b6 3c 1a 35 14 3e 98 08 43 be 92 3f 03 be
       0.022269651 0.14473382 -0.19046247 -0.12817219
000220 60 56 51 bc 4e 38 08 be a4 db 30 3e 28 14 d0 3d
       -0.012776941 -0.13302729 0.17271286 0.101600945
000230 7c d0 15 3d 40 0a ab 3c 74 19 38 bd d2 31 0c 3e
       0.03657578 0.020878911 -0.04494615 0.1369088
000240 19 b0 a3 bd 7c 69 1e 3e 10 48 28 be d8 f1 11 bd
       -0.07992572 0.15469927 -0.1643374 -0.03563103
000250 6c 0e 1a 3e e0 30 4b bd 1c a4 81 3d 44 06 94 3d
       0.15044564 -0.049607158 0.063301295 0.072277576
000260 d9 87 a3 bd c0 ca 44 bc da 1c cf bd 98 a6 d9 3c
       -0.07984895 -0.01201123 -0.10112925 0.026568696
000270 b4 61 24 3e fa 4c 80 bd 14 eb 25 3d ea ac 07 3e
       0.16052896 -0.06264682 0.04050739 0.13249555
000280 ac 5c 47 be df 8c 39 be 95 b3 23 be 0d 08 f2 bd
       -0.19468945 -0.18120144 -0.15986474 -0.11817942
000290 6e 4a 09 3e 2a 9d 96 bd 9c 73 c2 3d 28 cd a4 bd
       0.13407299 -0.073541954 0.09494707 -0.08046943
0002a0 70 f9 4a 3c 66 f7 0e 3e 44 14 50 3e 88 32 2a bd
       0.012388572 0.13961563 0.2032023 -0.041552097
0002b0 c8 7e 74 3d 16 81 09 3e 90 9e f8 3d b4 90 4a 3e
       0.05969122 0.13428149 0.121396184 0.19781762
0002c0 34 d7 d6 3d 70 19 f6 bc 9c 50 3c bd 80 ad c2 3b
       0.104902655 -0.030041426 -0.045975313 0.005941093
0002d0 db 01 0e be e6 f4 4f 3e 1a 40 45 3e 30 6d 17 3d
       -0.13867895 0.20308265 0.19262734 0.036969364
0002e0 88 a6 d5 bd 5e 4c 8d bd f2 3b 41 3e 14 a9 38 3e
       -0.10432154 -0.068993315 0.18870524 0.18033248
0002f0 d2 ac 13 be dc 59 df 3d 34 57 0d 3e 30 36 dc 3c
       -0.14421394 0.10905811 0.13802797 0.026881307
000300 90 ea 9a 3d 08 6f ab 3d ae 30 1d be 7c a1 63 bd
       0.075642705 0.08370787 -0.15350601 -0.055573925
000310 a0 76 6d 3d bf 82 17 be 24 e0 96 3d 3c 24 23 3e
       0.057974458 -0.1479597 0.0736697 0.15931791
000320 c0 1e 2b 3b 34 dd 31 3d c8 e2 23 3e bc ba d5 3d
       0.0026110858 0.043423846 0.16004479 0.104360074
000330 40 7a 90 bb 96 26 17 be 18 e1 83 3d 60 de d7 3b
       -0.0044091046 -0.14760813 0.064394176 0.0065877885
000340 00 e4 fd bc 10 f7 53 bc 00 23 67 bb 34 9f 22 3d
       -0.030992508 -0.012937322 -0.0035268664 0.03970261
000350 9f 9c b4 bd 74 3e be bd 84 dc 73 bd 28 b7 a7 3d
       -0.088189356 -0.09289256 -0.059536472 0.08189231
000360 58 e3 1b 3e 6c 0b 4d 3e 22 08 95 bd ac d3 31 3e
       0.15223444 0.20023888 -0.07276942 0.17365903
000370 24 f8 ba bd a0 3a b8 bc 72 65 3e 3e 80 7a a5 bc
       -0.0912936 -0.022488892 0.18593386 -0.020200014
000380 10 92 2b 3e 67 73 3d be e6 21 34 be e2 06 49 3e
       0.16754937 -0.18501054 -0.17591056 0.19631532
000390 0c 9b 42 3e 98 29 ea 3c c2 3f 27 3e b4 e8 25 3e
       0.19004458 0.028584287 0.16332915 0.1620205
0003a0 07 34 26 be 56 6a 27 3e a2 c5 2c 3e db dd 49 be
       -0.16230784 0.16349158 0.16872266 -0.19713537
0003b0 28 8a fa bc a0 d3 67 3d e0 36 6b 3c fc 90 96 bd
       -0.030583456 0.056598306 0.014356345 -0.07351872
0003c0 10 6c b5 3d 40 3b 7b bc a4 5d 22 3d e8 39 4d 3d
       0.08858502 -0.0153339505 0.039640084 0.05010405
0003d0 8d 18 42 be 00 00 3b be 13 8a b3 bd 9c 80 5f bd
       -0.18954678 -0.18261719 -0.0876657 -0.05456601
0003e0 2d 03 bb bd b0 30 52 bc 60 b0 b9 3d 6a 18 af bd
       -0.09131465 -0.012828991 0.09066844 -0.085495785
0003f0 c8 ad 74 3d 77 52 49 be d4 5d 9d 3d e8 55 13 3e
       0.059736043 -0.19660364 0.07683912 0.1438824

affine2.bias f4 [12]
000000 60 36 27 bc 70 65 99 3d 2c bb 9f bd 56 7e dc bd
       -0.010205835 0.07490051 -0.07799372 -0.10766284
000010 10 65 ba 3d f0 2b d7 bd b6 4d c3 bd f7 1d 3f be
       0.091013074 -0.10506427 -0.095363066 -0.18663774
000020 22 3a c5 bd 50 7d ae 3d b0 ec 99 bc 66 0c 23 be
       -0.096302286 0.08519995 -0.01878962 -0.15922698

affine3.weight f4 [4, 12]
000000 e6 bb a1 bd 30 54 df 3c 00 7f 60 bd bc dd 5c be
       -0.07897167 0.027261823 -0.054808617 -0.2156896
000010 e1 f2 42 be a0 88 1d bc 2c 86 8c be ca 21 fb bd
       -0.19037963 -0.0096150935 -0.27446115 -0.12262304
000020 60 b5 7a bc 40 31 61 bd d8 69 17 bd 64 6a 74 3e
       -0.015302032 -0.05497861 -0.036966175 0.2386871
000030 20 48 13 bd ae dc d2 bd d0 11 2d 3e 72 1e 90 be
       -0.035957456 -0.102959976 0.16901326 -0.28148228
000040 fa 2b 22 3e ba 0d f3 bd e0 74 0a bc e5 63 8b be
       0.15837088 -0.118678525 -0.008450717 -0.2722465
000050 dc 5a 85 3e cf 43 21 be 0a ac d1 bd 90 66 c6 bc
       0.26045883 -0.15748523 -0.10237892 -0.024218827
000060 d6 ee 92 3e 80 b7 4d bb 7a 69 0e be 57 04 8e be
       0.28697842 -0.0031389892 -0.13907424 -0.27737686
000070 e0 d0 4b bc 1e 91 0c 3e e0 9f 21 3d 00 99 ec 3d
       -0.012439936 0.13727233 0.03945911 0.1155262
000080 d0 70 cf 3c ae 38 2e 3e a0 f0 7d 3e 92 e1 24 be
       0.025322348 0.17013809 0.24798822 -0.16101673
000090 36 3f 48 3e 64 6c 91 3d af 77 8a be 00 80 9a bc
       0.19555363 0.07100752 -0.27044436 -0.018859863
0000a0 3c ee c9 3d 41 c5 3c be 58 7b 43 3d c2 6b 17 3e
       0.09859893 -0.18434621 0.04772505 0.147872
0000b0 76 35 26 3e 76 87 64 be 8d e2 37 be 50 bb 82 be
       0.16231331 -0.22317299 -0.17957516 -0.25533533

affine3.bias f4 [4]
000000 c8 06 6d 3e 1c 0e 63 3e ad 74 7a be b8 89 85 3e
       0.23147118 0.22173351 -0.24458571 0.26081634
